model.pth (torch, 87421 bytes, 6 tensors)

conv1.weight f4 [16, 1, 3, 3]
000000 90 ce 92 be 56 24 88 be 23 09 13 bb b2 1b 4e bc
       -0.2867322 -0.26590222 -0.0022435866 -0.012579845
000010 43 81 5f be ae 50 9d 3d 28 fd 8a be a9 f4 32 3d
       -0.21826653 0.07681404 -0.27146268 0.043690357
000020 d6 34 55 3e d9 cf c3 3e ab d7 64 3e 16 51 b9 3d
       0.20820937 0.38244513 0.22347896 0.09048669
000030 68 34 9a 3d 2b df 35 3e 57 9f 17 bd 2e f4 4b be
       0.07529527 0.17760913 -0.037017193 -0.19917366
000040 ba 39 26 be 03 4c 05 bd ae 04 ac bd 21 2e 66 bc
       -0.16232958 -0.032543194 -0.0839933 -0.014049084
000050 9e 1d b4 be e0 7f e4 3d b6 84 8b 3e db d2 de 3d
       -0.35178846 0.11157203 0.27249688 0.10880061
000060 92 69 97 3e 2c ca a0 3e 88 36 92 3e f5 3c 9f 3e
       0.2957273 0.31404245 0.2855723 0.31101194
000070 c0 7b 19 be 41 3f ad 3d 7b bc 29 3d 0e 0b 93 be
       -0.14988613 0.0845933 0.041439515 -0.28719372
000080 d3 c3 98 be 28 1f a5 bd 9d 95 7b be 27 e5 90 be
       -0.29836902 -0.08062583 -0.24568792 -0.2829983
000090 29 c1 ac bd 75 dc 42 be d2 90 46 be 8c 0f 9a be
       -0.0843528 -0.1902941 -0.19391182 -0.30089986
0000a0 ea c0 4e 3e f7 cc 0b be 86 14 32 3e c1 6a 2a 3e
       0.20190778 -0.13652407 0.17390642 0.16642286
0000b0 45 f1 16 3c e4 f3 a0 be f4 0c 31 3e d6 0e a8 3e
       0.009212797 -0.31436074 0.17290097 0.3282382
0000c0 d2 2e fc 3d 0c ca 33 3e 8f 52 89 3e 7e 90 aa 3e
       0.12313618 0.17557544 0.268208 0.33313364
0000d0 b4 98 3e 3e cf 4c d4 bd c1 81 5c 3e 27 88 d8 3d
       0.18612939 -0.103662126 0.21533872 0.10572844
0000e0 0b a2 13 bc a9 3b be 3d c5 ff e2 bd 9c dd 87 3e
       -0.009010802 0.09288723 -0.110839404 0.26536262
0000f0 9a 35 71 3e 4d 31 77 3e 0e de b5 3e e3 44 72 be
       0.23555604 0.241399 0.35520977 -0.2365909
000100 5f 9f 0d 3e 94 b0 80 be 21 27 fc 3c 05 80 89 be
       0.13830326 -0.25134718 0.030780377 -0.26855484
000110 80 07 96 be b2 20 c2 bc 3f ea f6 3d 25 e2 9e 3e
       -0.29302597 -0.023697231 0.12056398 0.3103191
000120 78 95 26 3d 4a c4 a0 be db ae 6d 3e 55 b4 31 3e
       0.04066989 -0.31399757 0.23211233 0.17353947
000130 6e 51 8f bc 2f 12 b8 3d e8 27 b2 bd 8e 0d a9 be
       -0.017494883 0.08987843 -0.08699018 -0.33018154
000140 1c d6 d2 bd b5 94 71 3e 5b ca 1e be c3 3f 70 be
       -0.10294744 0.23591883 -0.1550688 -0.23461823
000150 7d 6f 8c 3e 96 94 28 be af 1c 5e be 04 8e 62 be
       0.2742881 -0.16462931 -0.2169063 -0.22124487
000160 a1 90 2a be 12 3e 6a be 1c 2d 39 3d 67 f2 66 3e
       -0.16656734 -0.2287524 0.045209035 0.22553407
000170 6a fc 04 bc b1 da df 3d 87 ee 83 3e 03 a1 aa 3d
       -0.008116821 0.10930384 0.2576792 0.08331492
000180 4a 97 bc 3e 86 4c 34 3e 1a 0f 70 3e 5c 3b 25 be
       0.36834174 0.17607316 0.23443261 -0.16135925
000190 40 a4 22 bd 01 21 4e 3e 67 a6 8c bd 97 1b 85 3e
       -0.039707422 0.20129777 -0.06867676 0.25997612
0001a0 0a 06 44 be db 67 6a 3e d1 bd 90 bd 18 2b 22 be
       -0.19142929 0.2289118 -0.070674546 -0.15836751
0001b0 ec 3b 37 be a3 e6 87 3d 9f d0 e6 3d 4a 28 59 bd
       -0.17893952 0.06635787 0.1127026 -0.05301694
0001c0 52 42 ee bd 8f 98 b0 3e b8 dd 0c be e5 19 92 3e
       -0.11633743 0.34491393 -0.13756454 0.2853538
0001d0 7e ea b7 be c0 54 5c 3e e2 5a 64 be a1 cd 43 3e
       -0.3592109 0.21516705 -0.22300294 0.1912141
0001e0 34 40 49 3e 7b 4b 55 3e 36 91 c8 be ab ab b3 be
       0.19653398 0.20829575 -0.39173287 -0.3509191
0001f0 c1 8b 8c 3e 8c f2 86 3d b0 02 34 3e 94 0c 24 bd
       0.27450374 0.06589231 0.1757915 -0.040051058
000200 32 3e 89 be e1 ef ae 3e c1 fb 8d be 66 be 81 bd
       -0.26805264 0.34167388 -0.27731135 -0.06335144
000210 a7 52 ca be 0e 4a 8e 3e 94 c1 69 3e b3 b2 e9 3b
       -0.39516184 0.27790874 0.2282775 0.0071318983
000220 0f 8b 95 be 50 60 72 bd 96 4b 96 3e a1 b6 86 be
       -0.29207656 -0.059173882 0.29354542 -0.2631121
000230 39 3a 9f 3e 73 50 be 3d 3a 06 62 be 7f 64 6e bd
       0.31099108 0.09292688 -0.22072688 -0.05820131

conv1.bias f4 [16]
000000 4e ab a4 3e 5d db c8 3e 03 03 92 3e 2c 94 59 bd
       0.32161945 0.3922986 0.28517923 -0.053119823
000010 c6 6b a8 bd d4 f7 5d be 22 60 03 3e aa d5 9d bd
       -0.08223681 -0.2167657 0.1282964 -0.07706769
000020 52 bf 05 bd 19 33 91 3e cd 77 8d 3e 18 89 00 bb
       -0.03265316 0.28359297 0.27630463 -0.0019612964
000030 3b 38 22 3e 0e 48 42 3e 3c 6e 7d 3e a7 c4 94 3d
       0.15841763 0.18972799 0.24749082 0.07264071

conv2.weight f4 [32, 16, 3, 3]
000000 95 48 18 3b 2a 39 95 bd 13 6e 77 3d a4 7e da 3d
       0.0023236622 -0.07286294 0.06040771 0.10668686
000010 49 09 b7 bc 20 47 b0 3d be 31 8d 3d 25 68 04 bd
       -0.022343295 0.08607316 0.06894253 -0.032325882
000020 bd 55 8b 3d 93 c3 83 bd 2a a6 62 3d eb 41 8d 3d
       0.06803463 -0.06433787 0.055334248 0.068973385
000030 05 9b 08 3d 54 f0 ac 3c a6 b6 9c bd d4 58 45 3b
       0.033350963 0.021110691 -0.07652025 0.003011276
000040 bb d8 f3 3c 31 2e a5 3d 4e 6c ab 3c 2b 29 9c bd
       0.029766431 0.08065451 0.020925667 -0.0762504
000050 38 04 66 bd ae 1d 13 3d bc f7 06 3d 34 e8 2b bd
       -0.056156367 0.035916977 0.0329511 -0.041969493
000060 c0 bc 40 3c 43 2a 2e bc e2 81 5e 3c d0 68 dc bc
       0.0117637515 -0.010630193 0.013580771 -0.026905447
000070 fd 2c 55 bd 27 e2 40 3d 7d 05 c0 bd a5 58 af bd
       -0.052044857 0.047090676 -0.09376047 -0.085618295
000080 18 31 0f bc d7 00 53 bd 43 fd 4f 3d 4e 77 87 3d
       -0.008739732 -0.051514473 0.05077864 0.066145524
000090 91 79 00 be b3 af f1 bd 2c eb 95 bd d9 fb 77 bd
       -0.12546374 -0.1180109 -0.07320246 -0.060542915
0000a0 06 56 32 bd 21 9a 75 3d c1 17 22 bd 89 3f ae b9
       -0.04353907 0.059961442 -0.039573435 -0.00033235204
0000b0 25 55 37 bd 08 fa 0a 3d 1a 8c 22 bc f8 64 11 3d
       -0.044758935 0.033929855 -0.009921098 0.035496682
0000c0 93 0a f3 3c 92 fd c3 bc 59 aa 3c bd f5 69 1e 3c
       0.029668128 -0.023924623 -0.046060894 0.009668817
0000d0 fb 2a a0 bd 1d b0 b2 3c 13 2a 50 3c 68 41 62 3d
       -0.07820698 0.021812493 0.012705344 0.055238158
0000e0 b3 cb 33 bd 59 b9 b0 3c 44 6c a5 3d 36 dd 8f 3d
       -0.043895435 0.021572756 0.08077291 0.070246145
0000f0 f3 53 93 3d 4f 29 0b 3d 77 90 9b bd a8 d2 fc bc
       0.071937464 0.03397494 -0.07595914 -0.030862167
000100 6e 0d e3 bc ca ac 0e bd af 64 89 bd 74 ea 3c bd
       -0.027716365 -0.034832753 -0.06708657 -0.04612203
000110 f6 11 2f bb f0 84 42 3d be 07 36 3d 67 44 52 bd
       -0.0026713586 0.04749006 0.044440977 -0.051334765
000120 cf 15 42 3d 4b 1d 7f bc 56 4a 0c bc 80 da 5f 3d
       0.04738408 -0.015570949 -0.008562645 0.054651737
000130 82 5b fc bc ad 7f 41 3d 54 43 39 bd 2b bc 7a 3d
       -0.030805353 0.0472409 -0.045230225 0.061214607
000140 17 6a ab 3d 92 1b 5f bd 2f 34 18 3d c7 e7 83 bd
       0.083698444 -0.054469652 0.03715914 -0.064406924
000150 95 70 af 3d e0 0b 7c 3c 7b 21 3d 3d bc 35 8f bd
       0.08566395 0.015383691 0.046174508 -0.06992671
000160 b3 9f a4 bc fe 18 b7 bd e2 1a 18 bc cd 4d 6a 3d
       -0.020095682 -0.08940314 -0.009283753 0.057203103
000170 ed 7d bc 3c 14 a6 2a 3d 52 2b 3c bd 79 2a 94 bd
       0.023009265 0.04166229 -0.04593975 -0.072346635
000180 0f e8 87 3d f8 6c a9 bb a3 6c 1e bc a0 c5 9a bd
       0.066360585 -0.005170461 -0.009669456 -0.07557225
000190 eb 5d 7a bb e3 07 bb 3b a1 61 3d bc 0b de d9 bd
       -0.0038202952 0.0057077273 -0.011558921 -0.106380545
0001a0 92 36 98 bd fa 71 9d bd 56 bb 04 be a3 ae a9 bc
       -0.074322835 -0.07687755 -0.12962088 -0.020713156
0001b0 f0 04 8f 3d ca ab 9c bd 30 fc 79 bd c1 17 87 3d
       0.06983364 -0.07649954 -0.06103152 0.065963276
0001c0 2c 60 c0 bd 1d ec 8b bd c1 98 4e 3c 06 cf b3 bc
       -0.09393343 -0.068321444 0.012609662 -0.021949302
0001d0 f6 62 2f bd 7b 7c db bc 64 c5 62 bc ea 4f 3d 3d
       -0.042818986 -0.026792755 -0.013841007 0.04621879
0001e0 49 a8 08 3d c4 3a bb 3a e8 6f a3 3c be 9f 48 3d
       0.033363614 0.0014284481 0.019950822 0.048980467
0001f0 fa 20 81 3d 14 da e8 bc 43 4d b3 3c bc 48 68 3d
       0.06305118 -0.0284243 0.021887427 0.05670999
000200 6c ca 6b bd d3 c8 5e bd ee f6 9a 3c 5a b7 f2 bb
       -0.05756609 -0.05439074 0.018916573 -0.007407111
000210 44 31 05 3d 51 63 0a 3d 2a 8e c7 3b 32 21 53 3d
       0.032517686 0.03378612 0.0060899453 0.05154533
000220 93 55 a5 bc 36 55 5a bc 33 d3 ad bc 4e b2 98 bc
       -0.020182407 -0.01332598 -0.021218872 -0.01863971
000230 04 10 15 3d ef 21 ab bb a7 25 9c bd 70 bd be 3d
       0.036392227 -0.005222551 -0.07624369 0.09313476
000240 e5 1c a3 3d 8f d2 50 bd bd 06 b4 3d 6f 87 65 3d
       0.079644956 -0.050982054 0.08790348 0.056037363
000250 62 bb 7f bd 5c d4 17 bd b2 c3 8a 3c a0 59 9c 3d
       -0.06243456 -0.037067756 0.016939018 0.07634282
000260 63 42 e0 3c 13 a1 8b 3c d0 d3 8f bc 4f 8d 10 3d
       0.027375406 0.01704458 -0.017557055 0.035291012
000270 6d f9 3e bc b5 f0 b5 3d 6f a9 80 bc bd af 6b 3d
       -0.011656147 0.08883802 -0.015705792 0.057540644
000280 16 72 c9 3d 8b 4a a6 3c 28 2f b2 3d eb 38 33 3d
       0.09836213 0.020299217 0.087004006 0.043755453
000290 8b 76 d8 3d 45 f4 38 bd d6 88 9e 3d 0d 5d e6 bb
       0.10569485 -0.04515483 0.07740943 -0.0070301355
0002a0 ae 69 66 3d d8 48 43 3d bc 22 07 bc ff d2 3d bd
       0.056253128 0.04767689 -0.008248027 -0.0463438
0002b0 cc af 92 3d b4 8f 56 bd 70 4d 97 bd ea 1b e9 3c
       0.07162437 -0.05238314 -0.07387817 0.028455693
0002c0 fd 8a b2 bd aa ec 85 3c 20 54 c6 bc cf 21 a2 bd
       -0.08717916 0.016348202 -0.024210036 -0.07916605
0002d0 33 3e a4 3d b8 06 05 bd bc be 44 3c c8 10 6d 3a
       0.08019676 -0.03247711 0.012008365 0.0009043333
0002e0 5f 66 97 3d a7 7d ea 3c d1 84 68 bd 43 b1 8d 3d
       0.073925726 0.028624369 -0.05676729 0.069185756
0002f0 48 16 2c bd 94 6d ff bc ea 41 a7 bd 42 f5 78 bd
       -0.042013437 -0.03118018 -0.08166869 -0.06078077
000300 cc dc 84 bb b3 cd 82 3b d0 7c b1 3c f9 e4 6c bb
       -0.0040546414 0.0039918064 0.02166596 -0.003614722
000310 03 b5 24 3c e9 f5 5c bd 7e 79 41 3d 99 41 85 bd
       0.010052922 -0.053945456 0.047235005 -0.065066524
000320 9d 23 a6 3c e9 1c 44 bd 22 0d c4 bc 95 a9 b6 3d
       0.020280654 -0.047879133 -0.023932043 0.08919064
000330 02 67 9d 3d 9d ab 87 bd d0 1f 25 3d e1 a5 a9 3c
       0.07685663 -0.066245295 0.040313542 0.02070898
000340 3b ed 42 bd 75 89 b2 bd 03 f2 6c 3d 29 90 78 bc
       -0.04758952 -0.08717624 0.057847988 -0.015171089
000350 7e 05 77 bd 4d c4 48 3d a4 2b 1e 3d 47 36 7c 3d
       -0.060307972 0.049015332 0.038615838 0.0615752
000360 b5 7d b4 3d 59 97 f4 3b f3 50 9e bc 31 c9 03 3d
       0.08813039 0.007464331 -0.019325709 0.032174293
000370 d6 b2 ce 3b fc 52 52 bd df c2 9d 3d 38 16 75 3d
       0.00630794 -0.05134867 0.07703184 0.059835643
000380 51 7f f5 b8 4e ad b4 bd 1f 29 74 3d 55 df 3e bd
       -0.00011706225 -0.08822118 0.05960953 -0.046599705
000390 39 bc 9a 3c f1 c2 b8 3d 38 13 6b 3d 3d 27 a4 bd
       0.01888858 0.09021557 0.057391375 -0.080152966
0003a0 60 ce e2 3c c6 a8 2e bd cf ee 0f bd cf 7d ef ba
       0.027686298 -0.042641424 -0.035139855 -0.0018271747
0003b0 78 38 90 bc 4f 7c 5d 3d 50 5a 11 bd 3b a4 da bb
       -0.017605051 0.054073628 -0.03548652 -0.00667241
0003c0 62 63 3f 3d 6c a1 e1 bb 7b ce a2 3d cc f3 2e be
       0.04672564 -0.006885698 0.07949539 -0.17085189
0003d0 8b d2 8b bd e8 a5 ef bd b4 1e a9 bd fe 3d 92 bd
       -0.06827267 -0.11701566 -0.08257809 -0.0714073
0003e0 b4 e4 67 be d5 7f 00 be 92 1a a2 bd 96 74 3f be
       -0.22645837 -0.12548764 -0.07915224 -0.18696818
0003f0 18 83 9b 3d 30 b0 fb bb 9b d1 24 3c 7f 1b b9 3c
       0.075933635 -0.0076809153 0.010059739 0.022596119

conv2.bias f4 [32]
000000 b8 a1 f9 3c 81 af 8f 3d 60 ee 24 bd 28 95 2f bc
       0.030472621 0.070158966 -0.040266395 -0.010716714
000010 4e 66 d9 3c 13 23 39 3d 65 97 64 3d f9 d6 9a ba
       0.02653804 0.045199465 0.055808444 -0.0011813334
000020 a8 fb 06 bd 25 01 cd bd 61 0c 21 3d e0 cd 5b bd
       -0.03295484 -0.10009984 0.039318446 -0.053663135
000030 bd 98 c5 bd 87 21 60 bd cd d7 a5 3c 45 31 82 bd
       -0.09648273 -0.054719474 0.020244503 -0.06357054
000040 de d1 e9 3c b0 ae 3f bc 86 25 14 ba 42 f0 99 3d
       0.028542455 -0.011699364 -0.00056513434 0.07516529
000050 fc 52 b6 3d 3b d9 f8 bc 47 0f e2 bd 7f 98 34 bd
       0.08902547 -0.030377021 -0.1103807 -0.044090744
000060 79 7f 8b 3c 31 0d 09 bc da 31 31 bc fe 7e 61 bd
       0.017028557 -0.0083649615 -0.010815108 -0.05505275
000070 ca a5 58 3d 81 0e ac 3c e4 62 c8 3b ba 8a b8 bd
       0.052892484 0.02100301 0.0061153043 -0.09010835

fc.weight f4 [2, 8192]
000000 47 d6 44 3b 3a 26 ed bc f8 f3 0e bc 94 e0 9b bc
       0.0030034946 -0.028948892 -0.008725159 -0.019027986
000010 bc a1 36 3b 5b bb 7a 3b 48 a5 f4 bb 42 66 3c bc
       0.0027867397 0.0038258645 -0.007465992 -0.01149899
000020 fe 45 06 b8 0f a8 d1 bb 61 be 0d 3c c0 2f 5f bc
       -3.2013275e-05 -0.006398208 0.008651347 -0.013622224
000030 3f eb 31 bc 8e cc 8d 3b 6c 36 99 bc 99 eb 03 3b
       -0.01085931 0.0043273633 -0.018702708 0.002012944
000040 7f ac cc 3c 6d 6b 8b bc a4 a1 8d 3a b8 9f 01 bc
       0.024984596 -0.017018998 0.0010805619 -0.007911615
000050 07 d0 90 bb e3 b8 26 bc 3f 03 68 bb 2a 0c 8c ba
       -0.00441933 -0.010175916 -0.0035402325 -0.0010684778
000060 ca bb 77 bb 3c 96 4a bc b2 0a 82 b9 73 44 ef ba
       -0.003780114 -0.01236492 -0.000248035 -0.0018254652
000070 69 43 25 3b f7 5a 45 bb d0 f3 5d bb 1a 4d 44 bc
       0.0025217182 -0.0030114034 -0.0033867247 -0.011981273
000080 56 fc a9 3c 3e ec bc 3a ab 46 0e 3b fc 90 9e bb
       0.020750206 0.0014413667 0.0021709602 -0.004839061
000090 8a 77 d5 ba 12 73 1c 3c c5 64 60 bc 81 49 58 3b
       -0.0016286236 0.009548919 -0.0136959 0.0033002796
0000a0 57 a1 f6 bb 1c 64 0f bc 2f 95 7a 3b 82 ee 45 bc
       -0.0075265574 -0.008751895 0.0038235893 -0.0120807905
0000b0 49 24 83 bb 53 b9 a8 bb 29 e2 49 bc 5a 79 19 bc
       -0.0040021283 -0.0051490455 -0.012321987 -0.009367311
0000c0 ec b3 12 3a 1f 3a 0e bb 91 4b cf bb 87 6b b4 bb
       0.00055962685 -0.0021702123 -0.006326147 -0.0055059823
0000d0 db 49 2e bb 49 af f0 ba b6 58 e2 38 c8 dc 89 bc
       -0.0026594314 -0.0018362786 0.000107930435 -0.01682891
0000e0 1e 39 10 bc fa a1 00 bc 20 bf 9f bc 9f 52 a8 bc
       -0.00880268 -0.007851118 -0.019500315 -0.02054721
0000f0 17 a9 94 bc c1 9e 8d bb 00 88 9c b9 5c ce e9 bb
       -0.018147035 -0.0043219035 -0.00029855967 -0.0071351957
000100 84 58 fe bb ff f0 d2 bb c9 97 51 3a f0 92 39 bc
       -0.0077620167 -0.0064374204 0.0007995335 -0.011326537
000110 f2 37 50 bb 70 a8 5c 3b c1 99 9c bc 45 e6 a0 bc
       -0.0031771627 0.0033669733 -0.019116284 -0.019641051
000120 7b 96 63 bc 3a 10 4b 3a f6 b1 24 bc b7 a9 aa bc
       -0.013890858 0.00077462534 -0.010052195 -0.02083288
000130 7a 17 f9 bb 3e dd e5 bb b2 61 88 39 16 2f d0 ba
       -0.0076016756 -0.0070148995 0.0002601273 -0.0015883173
000140 23 ff 87 bc 3f c5 b9 3b ee c3 f6 3a 79 53 ae b9
       -0.01660115 0.0056692655 0.0018826702 -0.00033250058
000150 2d 64 75 3b 74 bf 0d bc 3a 7c 3f bc 21 48 03 3a
       0.0037443743 -0.008651603 -0.011687333 0.00050080015
000160 54 fb 49 bb 4b 67 0f bc 44 d1 73 bc 67 54 48 bc
       -0.003081997 -0.008752654 -0.014881436 -0.012227154
000170 75 8b 13 bc 35 34 70 bb d2 11 29 bc 33 88 ce bb
       -0.009005417 -0.0036652212 -0.01031919 -0.0063028573
000180 31 81 87 bc 28 d5 26 bc e2 3c 21 3b 1a 41 db bb
       -0.016541095 -0.010182656 0.002460294 -0.0066911103
000190 aa 8f 41 bc 45 6c e4 bb 68 c7 46 bc 84 5c 36 bc
       -0.011814037 -0.0069709145 -0.012132503 -0.011130456
0001a0 70 ee 4f 3a 2f 76 d5 3a 93 0a 85 3b 20 70 5c bb
       0.00079319533 0.0016285832 0.0040600984 -0.0033636168
0001b0 fe 43 e9 3a cb 9a c7 bb 26 74 b8 bb 77 e5 e2 38
       0.0017796753 -0.006091451 -0.0056290803 0.00010819261
0001c0 3c 89 a1 bc fb 95 f0 3b 7b 9f e9 bb c4 5b af bc
       -0.019718759 0.007342098 -0.0071296073 -0.021406062
0001d0 30 5a 6f bc bd 11 90 bc 69 06 ad 3a 72 a0 27 bb
       -0.014608905 -0.017586583 0.0013200763 -0.002557781
0001e0 35 26 29 bc b7 dd 2d bb 66 7f 19 ba 61 b7 ee bb
       -0.010324051 -0.0026529857 -0.00058554707 -0.007285044
0001f0 74 07 53 bc 31 b3 05 bc ce 3b ce 3b af 2d 50 bb
       -0.012880195 -0.008160398 0.0062937504 -0.003176551
000200 a6 29 f6 bc 78 28 5a ba fe e0 0a 3c ac 87 8c bb
       -0.030049156 -0.00083220704 0.008476494 -0.0042886343
000210 13 5f fd bb 79 2c a6 bb 10 6a e6 bb 70 81 59 3b
       -0.007732281 -0.0050712195 -0.0070316866 0.0033188723
000220 c6 ba 8e 3b d7 d5 e5 3b 2e b9 c6 3a 77 c6 d0 3b
       0.004355761 0.007014017 0.0015161389 0.006371315
000230 37 39 e1 ba 5c 6d ad 3a 62 37 59 bb 59 1c 5a ba
       -0.0017183189 0.0013231444 -0.0033144583 -0.0008320264
000240 fc 66 94 bc 6c 17 8a 3a d0 bc 90 3a 94 ff 8f bb
       -0.018115513 0.0010535545 0.0011042599 -0.004394481
000250 8d 5e d2 bb a5 5b fa bb 88 c5 07 bc 60 e5 63 bc
       -0.0064199627 -0.0076403194 -0.008286841 -0.013909668
000260 9a 2c dc bb 21 93 dd ba 6d 22 12 3c 81 7b ac 39
       -0.006719184 -0.001690481 0.008919341 0.00032898414
000270 67 9d ac bc b6 89 da 3b 1e c8 20 bc 9d a2 34 bc
       -0.021071149 0.0066692485 -0.009813337 -0.011025098
000280 36 85 bc bc 1e d6 cc 3b 90 29 11 bc 71 65 4e bc
       -0.023012739 0.0062511107 -0.008860007 -0.012597428
000290 f6 7f 9a bc 53 a7 3e bb b0 e1 97 bb 09 90 ee 39
       -0.018859845 -0.0029091432 -0.0046350583 0.00045502212
0002a0 bb 5a 8a ba 99 d6 27 bc c6 93 01 bc 24 ec 1f bb
       -0.0010555604 -0.010244035 -0.007908767 -0.0024402225
0002b0 a4 95 9f bc 3d 05 91 3b 4a ab 8e bb 0d 1e 2c bb
       -0.019480534 0.0044256733 -0.0043539153 -0.002626303
0002c0 3f 55 a9 bc a9 6a 81 3c ce 52 73 bc d2 89 86 bb
       -0.020670531 0.01579793 -0.014851285 -0.004105785
0002d0 de 40 f7 bb 25 96 a1 39 ea 43 9e bc 1f 3d 0c bc
       -0.0075455746 0.0003082018 -0.019319493 -0.008559494
0002e0 84 56 3d bc ad d0 22 b9 b9 8f 5b ba 60 48 98 bc
       -0.011556271 -0.00015527262 -0.00083756034 -0.018589199
0002f0 4b 38 38 bc f9 1f 50 bc 57 c3 a4 bc 78 88 6f bc
       -0.01124389 -0.012702935 -0.020112677 -0.014619939
000300 0c 18 f0 bc ef da a2 bb b1 95 a1 bb 5e 1c fc 3a
       -0.029308341 -0.0049699466 -0.0049311747 0.0019234528
000310 23 0f 8c ba 47 8d 37 bc fa 1c 4d bb 1c 36 88 ba
       -0.0010685663 -0.011203117 -0.003129779 -0.0010392102
000320 7d 47 ed 3b 62 e3 b0 3b 20 5a 07 bb 4e 48 66 bc
       0.007241188 0.0053982 -0.0020653084 -0.014055325
000330 bf 3d ff 3a 19 3b 98 3a 8b 81 42 bb 75 2c e2 ba
       0.0019473358 0.0011614292 -0.0029679264 -0.0017255681
000340 48 db e6 bc a3 e1 05 bc bf 59 58 3b 77 21 91 bc
       -0.028180733 -0.008171472 0.0033012477 -0.017716153
000350 1c f2 59 bb af 95 14 bc 18 99 2d bb 1b 3c c0 3b
       -0.003325588 -0.0090688905 -0.0026488956 0.00586654
000360 8e bc 90 3b 33 1e 66 3c 0c 03 65 ba 05 1a b3 bb
       0.0044170087 0.014045286 -0.0008736111 -0.0054657483
000370 0f ce f5 3a 46 d0 36 ba 4a c4 32 bc a6 67 76 bc
       0.0018753427 -0.0006973784 -0.010911057 -0.01503936
000380 84 cd f6 ba 52 91 cb 3b 79 6a 96 bb ee 79 b1 bb
       -0.0018829559 0.006212392 -0.0045903292 -0.0054161465
000390 7d a9 82 bc 9b a6 ca 3b c7 53 09 3c 21 4e ac 3b
       -0.015949959 0.0061844117 0.0083817905 0.005258337
0003a0 5d eb 4b bc cc bf b1 bb bb 8b ff 3b ce 6c 5e bb
       -0.012446252 -0.0054244753 0.0077986396 -0.0033939364
0003b0 49 37 05 bc 36 fd b0 bb e5 71 f7 ba 2c b6 fe bc
       -0.008130857 -0.005401279 -0.0018878548 -0.031092726
0003c0 bc 23 90 bc cc 3c c1 3b 1f d0 b0 bc c8 95 0b bc
       -0.017595164 0.00589714 -0.021583615 -0.008519597
0003d0 99 d3 09 bd 75 3f 3b bc 82 ad dc bb 25 3f ab bc
       -0.03364906 -0.011428704 -0.006734551 -0.020904133
0003e0 e2 54 16 bc 42 5d 4f bc e2 f7 83 3c e6 1b c6 bb
       -0.009175511 -0.012656512 0.01610941 -0.006045806
0003f0 ed 8e 8a bc 19 0c 24 bc 28 4d a5 bc 3e 09 b1 bc
       -0.016913855 -0.01001265 -0.020178393 -0.021610852

fc.bias f4 [2]
000000 7a 79 95 bb 97 e1 75 3c
       -0.0045616003 0.015007398
