model.pth (torch, 87421 bytes, 6 tensors)

conv1.weight f4 [16, 1, 3, 3]
000000 c6 d7 cd 3e 10 52 a2 bd 36 3c d3 be 35 21 d4 3e
       0.40203685 -0.079258084 -0.41256875 0.41431585
000010 ba 85 ac be 05 9a 81 be ca 39 ac 3e a4 d8 7b bd
       -0.33695775 -0.2531282 0.3363784 -0.0614859
000020 2a d4 e5 bd 93 ea 6b be fd b5 a0 be 99 c2 5d 3e
       -0.11222108 -0.23038702 -0.31388846 0.21656264
000030 10 fd 49 3e 45 48 83 bd 20 22 53 be 48 bd 5e 3e
       0.19725442 -0.06410269 -0.20618486 0.21751893
000040 f6 ff 4a 3e 88 8f b6 bb 9d 80 e9 bd e5 20 31 3e
       0.19824204 -0.0055713095 -0.11401484 0.17297705
000050 61 9c 62 be 15 5f 56 3e 89 f8 36 3e b1 d5 bf be
       -0.22129966 0.20934708 0.17868246 -0.3746772
000060 60 2f 87 3d 6d 38 e7 bd f9 86 9e 3e 95 2f 9a be
       0.06600833 -0.11290059 0.3096235 -0.30114427
000070 09 26 a0 3e 69 01 99 3e f9 6c 4e be d3 42 ad 3e
       0.3127902 0.29883888 -0.20158757 0.33840045
000080 ec 5a 70 3e c6 58 8c bd 06 9e 96 bd a2 f9 8c be
       0.23472184 -0.0685287 -0.07354359 -0.27534205
000090 ee 1d ed bd 22 5e 72 be fb e9 8a 3c 2d 6b 55 be
       -0.11577974 -0.23668721 0.016957274 -0.20841666
0000a0 10 60 dd bc 78 04 a2 be ce bf e2 bd e1 fd f8 3d
       -0.027023345 -0.31644034 -0.1107174 0.121577986
0000b0 49 45 95 be 08 07 8a 3e 66 86 22 3e b4 5a d9 be
       -0.29154423 0.2695849 0.15871581 -0.42452013
0000c0 60 8b 84 bd a0 ce 1b be 6a 79 5f 3e 9a c7 4e be
       -0.06471896 -0.1521554 0.2182366 -0.2019333
0000d0 10 0e 6b be 13 77 cc 3e 15 5e 3f be a2 44 12 be
       -0.22954583 0.39934596 -0.18688233 -0.14283994
0000e0 0f f6 f7 3d 8d df 33 3d 69 06 5d 3e 07 3c 95 3e
       0.12107479 0.043914367 0.21584477 0.2914736
0000f0 c8 b6 57 be f6 25 53 be 18 72 04 bd 81 2e fa be
       -0.2106582 -0.2061995 -0.03233537 -0.48863605
000100 2d 9a 01 bd 69 b5 90 3e 4a 0d 9b 3d 13 58 87 3d
       -0.031641174 0.28263405 0.07570894 0.06608596
000110 6b 89 1e 3e 22 9e d7 3e de 6d 25 3c a2 4c 36 be
       0.15482108 0.42112833 0.010096995 -0.1780267
000120 f2 68 e2 bb 67 77 76 3e ea e0 ff 3d 52 ca 7e be
       -0.006909483 0.24068986 0.12494071 -0.24881867
000130 d5 84 f6 bd a3 08 0d bc 93 ac 31 3e 2e 92 5d 3e
       -0.120370544 -0.008608016 0.17350988 0.21637794
000140 45 96 7d 3e 3c 43 87 3e f5 bc 5c 3c be e7 6a 3e
       0.24764355 0.26418483 0.013472785 0.22939965
000150 72 ac a2 be f0 27 81 3e f1 b8 4e 3e 23 a4 b5 be
       -0.3177219 0.25225782 0.20187737 -0.3547679
000160 da ac 2b be 31 81 c0 3c 8a 33 d5 be cb b1 33 3e
       -0.16765156 0.023499103 -0.41640884 0.17548291
000170 d2 fc 7a 3e 04 b0 8a be f6 5f a2 be 74 3a 6e bd
       0.24510506 -0.27087414 -0.31713837 -0.058161214
000180 7f 08 c1 3c 36 19 dd 3e 56 9d 51 3e 66 67 85 be
       0.023563622 0.43183297 0.20470175 -0.2605545
000190 64 39 82 bc e9 8f 87 3e 2e 67 80 be a9 02 56 3e
       -0.015896507 0.26476982 -0.2507872 0.20899452
0001a0 7c 0f a0 3e b4 d3 28 3d 70 30 3e 3d c9 e0 71 3d
       0.31261814 0.04121752 0.046432912 0.059052262
0001b0 b6 a1 bd bd 51 7e 2b be f5 5c 81 3d 05 93 7c 3e
       -0.092593595 -0.16747405 0.06316558 0.24665459
0001c0 e6 11 66 3d 65 95 56 bc 53 3a 13 bd 51 5b 06 be
       0.056169413 -0.013097142 -0.035944294 -0.13120772
0001d0 77 4f 4c be 06 34 33 3e 1d bc 21 bd b8 83 92 3e
       -0.19952188 0.17500314 -0.03948604 0.28616118
0001e0 af a1 b3 3e 4d 7e 86 3e d8 28 98 3e 38 8c 91 be
       0.35084292 0.26268235 0.2971866 -0.2842729
0001f0 26 08 b3 be e4 ed 46 bd ad bf 26 3c b3 e4 a0 be
       -0.34967154 -0.048566714 0.010177535 -0.31424484
000200 4c ce 3a 3e 91 9f eb 3c 9d 4f 15 be 34 fe a1 3d
       0.18242759 0.02876261 -0.14581151 0.079098135
000210 f2 15 83 3e be 81 64 be 7b 00 a0 3e f7 99 ab 3e
       0.2560268 -0.22315118 0.31250367 0.33515903
000220 4b 51 6e 3e bc a6 bf 3e 9d f3 12 3e 00 30 16 3e
       0.23273198 0.37431896 0.14350744 0.14666748
000230 aa 72 57 3e 87 45 17 3d 27 c3 d3 3d dd dd 04 3e
       0.21039835 0.03693154 0.10339957 0.12975259

conv1.bias f4 [16]
000000 4c be a4 bd c2 f5 3d bb 9b 8f cd 3d 93 8d 81 3e
       -0.08044109 -0.0028985594 0.10037156 0.25303325
000010 92 85 80 be bb a0 f8 3d 7f 83 02 3e b8 5b 54 3e
       -0.25101906 0.12140032 0.12745474 0.20738113
000020 cc 2c 8e 3e 38 22 12 3e bc 33 f0 ba dc e0 ac 3e
       0.27768552 0.14270866 -0.0018325965 0.33765304
000030 a0 40 52 3e 8d 02 99 3d 40 01 06 be 54 af 1d be
       0.20532465 0.0747119 -0.13086414 -0.15398914

conv2.weight f4 [32, 16, 3, 3]
000000 ac e9 18 bd 65 a2 22 3e 3e df 55 bd e5 2d 32 3d
       -0.037332222 0.15882261 -0.052214853 0.0435008
000010 21 d8 1c 3e ff 5e ed 3b f9 f4 0a bd 36 5d 4d 3e
       0.15316822 0.0072439904 -0.03392503 0.20055088
000020 e0 0d 15 3d 94 0c 21 be 16 82 82 bc 72 d7 06 3d
       0.036390185 -0.15727454 -0.01593117 0.03292031
000030 fb 03 45 bd 35 fd f7 bc e6 5b de bd 61 00 11 be
       -0.0480995 -0.030272106 -0.10857372 -0.14160301
000040 67 39 19 bd d6 88 05 be 54 5f 12 bd af 4f e8 3c
       -0.03740826 -0.1304048 -0.035735443 0.028358309
000050 a4 1f 9c bd c2 e9 90 bb 2d 0a b9 3c fa c2 1b bd
       -0.076232225 -0.0044223974 0.02258786 -0.03802774
000060 90 01 00 3d ac 6b 88 bc 8a f0 60 bd 32 90 01 3d
       0.03125149 -0.016652904 -0.054916896 0.031631656
000070 a2 fe f0 bd d9 a5 b6 bd 7b 63 98 bc 29 5d ac bd
       -0.11767317 -0.08918352 -0.018602123 -0.084162064
000080 b2 df ad 3d 10 5f ae 38 e2 33 8b bd 01 b8 89 bd
       0.08489932 8.314673e-05 -0.06797005 -0.06724549
000090 c8 63 45 bd 22 88 16 3d ff 59 36 3d 82 f5 88 bd
       -0.048190862 0.03675092 0.04451942 -0.06687452
0000a0 27 a2 b2 3c f9 48 5b bb 86 55 d4 bc 6f 76 87 bc
       0.021805836 -0.0033460243 -0.025919687 -0.016535966
0000b0 1c 81 6c 3c f2 22 ef bd 1d a7 73 bd 69 03 c0 bd
       0.014435079 -0.11676587 -0.059485544 -0.093756504
0000c0 a9 dc 54 be 85 cf f6 bd cd 91 65 bd 48 8c 77 be
       -0.207873 -0.120513 -0.05604725 -0.24174607
0000d0 09 d2 d0 bd 9b ee 5f bd 88 fe 33 3e 23 46 96 3d
       -0.10196311 -0.05467091 0.17577565 0.07337596
0000e0 2d e8 c8 3d ff d2 81 3d de e4 96 3a 1c 03 91 3c
       0.09809909 0.063390724 0.00115123 0.017701678
0000f0 57 a8 24 3d 0e d2 9a 3d a0 6f aa 3d 10 8b 0b 3d
       0.040199604 0.07559596 0.08322072 0.034068167
000100 e4 21 bd bd b5 c2 00 3d f1 b3 b1 bc ce 7e 0b be
       -0.0923498 0.031435687 -0.021692248 -0.13622591
000110 95 7b 82 be a4 11 60 3c 13 2e 7e bd f5 48 31 be
       -0.2548491 0.013676081 -0.06205566 -0.17312987
000120 cd 1a f1 3d fc f5 6d 3d 1c 60 8d 3d 84 2f 84 3d
       0.1177269 0.058095917 0.06903097 0.064543754
000130 a9 b2 c3 bc 97 b7 94 bd f0 8b d4 3d 62 67 2f 3d
       -0.023888903 -0.072615795 0.103782535 0.042823203
000140 6b 1d e3 bd 82 4c 1b 3d c9 3c 62 bd 48 b6 a3 bd
       -0.110895954 0.03791476 -0.05523375 -0.07993752
000150 17 54 39 3e 22 15 c9 bc 1d f0 17 3d b3 46 ec 3d
       0.18098484 -0.02454621 0.037094224 0.11536922
000160 d1 5f 9a bd 5d 71 03 be 7e 25 54 3e bc 47 83 3d
       -0.07537807 -0.12836213 0.20717427 0.064101666
000170 48 b0 00 3d 01 8f 9d 3c 6d cd a8 3b f8 40 a4 ba
       0.031418115 0.019233229 0.005151442 -0.0012531569
000180 be 40 9a 3d d2 13 a8 bc 5a 16 4b bb 2f 48 22 3e
       0.0753188 -0.020517264 -0.0030988664 0.15847848
000190 38 90 68 3d 96 69 5b bd 65 17 00 3e 1c a3 9e 3b
       0.056778163 -0.05356749 0.12508924 0.0048412215
0001a0 6a d0 b8 3c 7e b0 0e 3e 3d ed ec bb 1c bf 11 3d
       0.022560317 0.13934514 -0.0072304294 0.035582647
0001b0 cd c7 a8 bd 66 8b d9 3d b5 2f aa 3c 76 47 a3 bd
       -0.08241234 0.10622291 0.020774702 -0.079726145
0001c0 ed 5c 0b 3d 99 b2 69 bd 71 41 0f be a0 e0 64 3c
       0.034024168 -0.05705509 -0.13989808 0.01396957
0001d0 b7 79 d6 3d b7 83 50 3d 47 e6 5f bd d0 06 5e 3b
       0.10472434 0.050906863 -0.05466297 0.0033878572
0001e0 46 55 03 bc 72 73 38 3d 88 31 b0 bc 8a 6a dc 3d
       -0.008015936 0.045031972 -0.021507993 0.10762508
0001f0 eb cd e3 bd a2 a1 b2 bd c0 b3 07 3e 21 37 7f 3c
       -0.1112326 -0.08722235 0.13252163 0.015577109
000200 5d 1c 04 3e f8 9d 0b 3e e9 5e 8f 3c 26 01 5b 3d
       0.12901445 0.13634479 0.017501311 0.053467892
000210 10 34 d2 3d f5 45 01 3e d6 8c 65 bd 4e 1f 8c 3d
       0.102638364 0.12624343 -0.056042515 0.068419084
000220 74 db 5c 3c af a6 fe 3c fb e7 53 bc 5a 76 2f bd
       0.013480056 0.03108534 -0.012933726 -0.04283748
000230 d4 17 a1 3c e6 69 cf bc 92 f0 3c bd 60 28 c7 bd
       0.019664682 -0.025319051 -0.046127863 -0.09724498
000240 87 8d 53 3d a4 76 9b bd 04 4e 03 3e 8b 95 71 bc
       0.051648643 -0.07590988 0.1282273 -0.0147451265
000250 17 c2 36 3c 16 31 1b 3e 76 9c 5d 3d c9 78 8f 3c
       0.011154673 0.15155444 0.05410429 0.01751365
000260 46 8e 4a 3d d2 0a f9 3c 09 d3 cf bd 70 2a 3b bc
       0.04945209 0.030400667 -0.10147674 -0.011423692
000270 7c 8f a2 bd 82 46 da bd ea 1a 55 3c cd 79 0c bc
       -0.07937524 -0.106579795 0.013006905 -0.008573961
000280 17 83 39 be 88 69 3a be c8 78 58 bd e9 02 06 be
       -0.18116413 -0.1820432 -0.05284956 -0.13087048
000290 3a 6b 02 be 92 8f b5 bd 33 4c ff bd 33 de 5c bd
       -0.12736216 -0.088652745 -0.12465706 -0.053922843
0002a0 6b f8 84 bd 88 b1 2d be 80 3f 61 bc b8 a3 65 bd
       -0.064926945 -0.16962254 -0.01374805 -0.056064337
0002b0 cb 07 26 be c3 39 c7 3d a4 dd ec 3b fe de b0 bd
       -0.1621391 0.09727814 0.00722857 -0.086362824
0002c0 0d 34 34 3d 15 a3 d9 bc f6 b1 04 be 94 0d 14 3e
       0.043994952 -0.026567021 -0.12958512 0.14458305
0002d0 73 ec 4e bc b9 4a 9f 3d c9 de 9b bd 41 40 6e 3d
       -0.012629616 0.07777924 -0.07610852 0.058166746
0002e0 35 b9 46 bd f0 ad aa bd 50 1e c8 3d 61 db a2 bc
       -0.04851647 -0.08333957 0.09771407 -0.019879999
0002f0 00 98 20 be ee 56 49 3d cb 0c 35 3d a2 c4 41 bd
       -0.15682983 0.04915517 0.044201653 -0.047306664
000300 df ef 03 bd 83 94 a8 bd e7 97 5b bd 1e 60 f3 3c
       -0.03221118 -0.08231451 -0.053611662 0.029708918
000310 8c 38 9e bd 8f e7 d2 bc e8 21 05 3d cf 11 00 bc
       -0.07725629 -0.025745181 0.03250304 -0.007816746
000320 5f 9a 90 3c 89 5e 11 bd f4 e2 20 bd 26 b6 4e bc
       0.017651735 -0.035490546 -0.03927894 -0.01261667
000330 48 83 66 bc ee a6 75 3d 6a a4 00 3d 53 25 c0 bd
       -0.014069386 0.05997365 0.031406797 -0.09382119
000340 ce 54 7a 3d a9 9a 83 bc 77 9a ac bd ae e3 40 3d
       0.061116032 -0.016064959 -0.08427899 0.047092132
000350 0c 7c 63 bd 4c 29 24 bd 45 b0 bd bd 22 81 81 bd
       -0.055538222 -0.040078446 -0.09262136 -0.06323458
000360 b8 4d 3c bd f8 c8 2b bd e4 ea 9a bb b0 16 f5 bc
       -0.045972556 -0.041939706 -0.004727708 -0.029918045
000370 a3 c0 c9 bd cc 51 e3 3d b0 8d 07 bc 7b e6 11 be
       -0.09851196 0.11099586 -0.008273527 -0.14248078
000380 95 79 53 3d 7b 78 6f 3b 5f b3 4f bb 71 60 d5 3a
       0.05162962 0.0036540318 -0.0031692607 0.0016279352
000390 05 75 e2 ba c0 33 c8 3d 9f 0f 15 3d 9a 0d 00 bd
       -0.0017277306 0.097754955 0.03639185 -0.03126297
0003a0 27 cd a5 3d 92 ec b3 3d 13 ae d1 bd 9c de 5a 3b
       0.0809577 0.087853566 -0.1023828 0.0033396846
0003b0 40 a4 21 3e 44 bc 07 bb c8 c9 10 3d 38 ff cf 3d
       0.15785313 -0.002071158 0.035348684 0.10156101
0003c0 cf f8 bf 3c 96 74 10 bd dd 49 a7 3d 8b d4 b3 bd
       0.02343407 -0.035267435 0.08168385 -0.08780774
0003d0 1a 97 0a bd 5c b2 bd 3d 84 db e0 bc ab 1e 88 3c
       -0.033835508 0.09262535 -0.027448423 0.016616186
0003e0 25 bc bc 3c 7a f8 08 be 95 1c d3 3c 66 73 48 3d
       0.023038933 -0.13376036 0.025770465 0.048938178
0003f0 b1 6a c2 bc 31 db 86 3d b4 58 8d 3c ff b1 d0 3c
       -0.023732515 0.06584776 0.017254211 0.0254755

conv2.bias f4 [32]
000000 26 8a 32 bc 80 99 13 bc 01 50 64 3c cd 4b d6 3d
       -0.010897195 -0.009008765 0.01393509 0.104636766
000010 99 8f 36 bd 50 92 64 3d 9a 7f 48 3c 60 01 92 bd
       -0.04457054 0.055803597 0.012237454 -0.071291685
000020 38 12 8d bd e3 7f d4 3c 6c e6 d9 3c 23 aa 92 bc
       -0.068882406 0.025939887 0.026599132 -0.017903393
000030 92 6b 67 bd 91 69 2b bd a9 6f 15 3d 97 f9 6c bc
       -0.05649907 -0.041848723 0.03648344 -0.014463804
000040 94 09 29 3d 33 0b a2 bc 90 03 4e 3c d7 f4 74 3c
       0.0412689 -0.01978073 0.012574092 0.0149509525
000050 ee 3c 39 3d df 8d 9c bc 8c ab df bd 55 4e 8b 3d
       0.045224123 -0.019110618 -0.10921392 0.0680205
000060 53 54 16 bd d9 ca df bd 56 13 2b bd ac 5d 4f bc
       -0.03670151 -0.10927362 -0.041766487 -0.01265661
000070 27 2c 0e bd 0f 6d 0e 3c 69 ae a9 3d 5e 76 8d bd
       -0.034710076 0.008692994 0.08285219 -0.069073424

fc.weight f4 [2, 8192]
000000 ed 19 85 3b 3f 05 b9 bd 25 e3 bf 3c 45 c8 87 bd
       0.0040619285 -0.09034204 0.02342374 -0.06629995
000010 87 0b 2a bd 3c bc 24 bd b8 73 1d bd 08 e2 68 bd
       -0.0415149 -0.040218577 -0.038440436 -0.056856185
000020 dd 94 9d bd 57 86 9d bd 1a a8 7a bd 7e 37 3e bd
       -0.07694409 -0.07691639 -0.06119547 -0.04643964
000030 22 b7 d2 bc 44 64 5e bd 24 b3 37 bd c1 55 16 bd
       -0.02572209 -0.05429484 -0.044848576 -0.036702875
000040 ac d4 0d 3b c1 a6 83 ba 21 28 39 3d 6e af 3c bc
       0.0021641655 -0.0010044203 0.045204286 -0.011516435
000050 1e 9b 8d bd f9 b5 29 bc db f4 41 bd 82 24 29 bd
       -0.06914352 -0.010358327 -0.047352653 -0.041294582
000060 bc 40 56 bd ef ef 7b bd ee 3c 8c bd b4 a8 85 bd
       -0.05230783 -0.061508115 -0.06847559 -0.06526318
000070 c0 80 3f bd 47 7d 9d bd 5d 2c a7 bc 89 61 ba bc
       -0.046753645 -0.076899104 -0.020406896 -0.022751587
000080 6c 3b 00 3b b8 40 e4 bc b4 67 0f 3d 46 7e 27 bc
       0.0019566668 -0.027862892 0.03501101 -0.010222977
000090 db 86 a8 bd 47 35 71 bc bc bf 55 bd 35 70 e4 bc
       -0.08228847 -0.014722175 -0.052184805 -0.027885536
0000a0 49 ed 64 bd 1a dc a4 bd d8 83 11 bd 6f 4f b2 bd
       -0.055890355 -0.080497935 -0.035526127 -0.08706557
0000b0 14 c1 08 bd 36 7d a5 bd b9 1a e2 bc c2 61 b3 bc
       -0.03338726 -0.08080523 -0.027600633 -0.0218972
0000c0 b7 05 5f bc 3e 1e 8f ba 3a 19 13 3d 3f ef 53 bd
       -0.013612202 -0.0010919047 0.03591273 -0.051741835
0000d0 f1 4d 59 bd 9b fd 04 3c 08 68 0e bd 7e dc 0e bd
       -0.053052846 0.008117105 -0.03476718 -0.034878246
0000e0 fd 5e 71 bd 0a bc 6c bd 79 ac 9a bd 10 d0 89 bd
       -0.05892848 -0.057796516 -0.07552428 -0.06729138
0000f0 41 57 31 bc fe 5e e2 bd 55 c9 a7 bc 3c 2e 4a bc
       -0.010824026 -0.110532746 -0.020481745 -0.012340125
000100 4e cf 1e bc 44 52 27 bd 22 20 b2 bd de e0 4d bd
       -0.00969298 -0.04084994 -0.08697535 -0.05026328
000110 f1 17 9c bd 23 5b 11 bd e9 6d 38 bd 9e f9 2c bd
       -0.07621754 -0.035487305 -0.045026693 -0.04223024
000120 01 78 7d bd 3e 5a 9a bd 66 34 6b bd ed 3e b8 bd
       -0.061882023 -0.075367436 -0.057423018 -0.08996377
000130 a4 72 ac bc c2 76 e2 bd 64 d3 36 bd dc 64 22 bd
       -0.021050759 -0.110578075 -0.04463519 -0.03964697
000140 53 5f 06 3c 1f 16 3a bd bd 81 7e bd 95 86 6a bd
       0.008201438 -0.045431253 -0.062135447 -0.057257254
000150 88 7b 47 bd bb aa 4e bd 03 53 a1 bd d6 61 28 bd
       -0.048701793 -0.05045579 -0.07877161 -0.04110893
000160 02 5f 93 bd 85 a7 9b bd 4e 27 df bc 1d 84 76 bd
       -0.07195856 -0.07600311 -0.027240422 -0.060184587
000170 ab 3c c0 bc 47 57 ea bd ec 67 4a bd 77 7d 52 bd
       -0.023466429 -0.11442428 -0.049415514 -0.051389184
000180 eb bc af 3c 76 21 0e bd a3 bc 9c bd 87 19 4d bd
       0.021452388 -0.03469988 -0.07653167 -0.050073173
000190 67 ab 3f bd 04 b6 6c bd e6 27 b2 bd f8 3f 34 bd
       -0.04679432 -0.05779077 -0.08699016 -0.044006318
0001a0 f1 94 70 bd de 3a b1 bd 0f d9 55 bd e8 af bc bd
       -0.05873579 -0.08653806 -0.052208956 -0.09213239
0001b0 a1 df 48 bd f4 bf ac bd ca 84 1d bd 5a a4 5c bd
       -0.049041394 -0.0843505 -0.038456716 -0.053867675
0001c0 e2 90 d7 3c 42 71 07 bd 84 8d cf bd b8 94 00 bd
       0.026314203 -0.033066995 -0.10134414 -0.03139183
0001d0 43 3a 5b bd b4 7f 68 bd 76 28 8f bd e0 b8 11 bd
       -0.05352236 -0.056762412 -0.06990139 -0.0355767
0001e0 d1 66 4a bd ac 54 8f bd fc 5d 3d bd 40 d1 78 bd
       -0.04941446 -0.06998572 -0.04623221 -0.06074643
0001f0 c5 e4 a3 bd fe 58 be bd 08 c2 65 bd c4 25 b4 bd
       -0.08002619 -0.09294318 -0.056093246 -0.08796266
000200 4f 9f 9f 3c 61 09 af bd ca 14 91 bd cb 6a 32 bd
       0.019485144 -0.08546711 -0.07084043 -0.043558877
000210 95 3f 86 bd 58 e1 46 bd 90 be 72 bd 0e e9 8a bd
       -0.06555096 -0.04855475 -0.059263766 -0.06782733
000220 cb 9d b6 bd 34 9b 76 bd 35 c6 4d bd c1 91 42 bd
       -0.08916815 -0.060206607 -0.050237853 -0.047502283
000230 6b bc 3a bd 4f a2 8b bd cc 77 8a bd 64 4d d0 bd
       -0.045589846 -0.06818067 -0.06761131 -0.10171011
000240 2d 3c e5 3b 64 89 5f bb 9d 90 b7 3c 04 f2 7c bd
       0.006995699 -0.003410899 0.022407824 -0.06175424
000250 33 8d 05 bd 10 f4 71 bd 0d c8 41 bd fa d1 c7 bd
       -0.03260536 -0.059070647 -0.047309924 -0.09756847
000260 6e 4f 68 bd a4 b5 14 bd 86 08 87 bd 87 de 8e bd
       -0.056716375 -0.03630604 -0.065934226 -0.069760375
000270 bc aa 68 bd 12 38 66 bd dc 30 cc bd 16 7e 4a bd
       -0.05680345 -0.056205817 -0.09970257 -0.04943665
000280 19 ea a7 3c f2 ea fa bc 5b de 18 3d ea a0 7e bd
       0.020497369 -0.030629609 0.03732143 -0.06216518
000290 a5 c7 15 bd 6d 7d 89 bd 85 15 0f bd 74 c2 b2 bd
       -0.03656735 -0.06713376 -0.034932632 -0.08728495
0002a0 12 b3 85 bd e6 ab 8f bd 69 21 76 bd ef 40 8b bd
       -0.065282956 -0.07015209 -0.060090456 -0.067994945
0002b0 ef 54 86 bd ce d7 88 bd 74 7d cb bd 76 82 3f bd
       -0.065591685 -0.066817865 -0.09936038 -0.046755277
0002c0 6a 56 09 3c 6b 0f c5 bd 83 23 5a 3d 84 c4 50 bd
       0.008382419 -0.09622081 0.053256523 -0.050968662
0002d0 f7 0a 8f bb e9 4f 93 bd 42 01 c6 bc e6 e9 98 bd
       -0.004365321 -0.07192976 -0.024170522 -0.074664876
0002e0 b3 76 86 bd c4 10 c1 bd 74 65 42 bd 95 01 84 bd
       -0.06565609 -0.09427026 -0.047460034 -0.06445614
0002f0 76 2a 97 bd 98 5d 96 bd 7e c6 7d bd 87 f3 92 bd
       -0.07381146 -0.0734207 -0.061956875 -0.071753554
000300 3c 64 9d 3b d6 c6 0f bd f0 21 05 3d 9a 9f e7 bc
       0.0048032086 -0.035101734 0.03250307 -0.028274346
000310 d9 42 db bc d4 d4 22 bd 49 c0 65 bd 67 bb a9 bd
       -0.026765274 -0.03975375 -0.05609158 -0.08287697
000320 1f 5a 2a bd 6a 88 b7 bd fa d4 92 bd 16 9d b7 bc
       -0.041589852 -0.08961566 -0.07169528 -0.022413772
000330 72 01 42 bd 99 43 82 bd 50 3d 8b bd 16 9e 42 bd
       -0.04736466 -0.063605495 -0.06798804 -0.047514044
000340 fd 4d 08 bb fc 57 09 bd a8 14 71 3b 91 50 7f 3c
       -0.0020798438 -0.033531174 0.0036785994 0.015583173
000350 63 ea 8d bc 48 70 6e bd 43 e8 8c bd 59 19 6b bd
       -0.017323678 -0.05821255 -0.06880238 -0.05739722
000360 ca 14 26 bd 70 79 8e bd 8a 08 87 bd 5c 01 90 bc
       -0.04054717 -0.06956756 -0.065934256 -0.017578773
000370 ef 37 4a bd a0 08 98 bd 87 23 81 bc 48 59 8f bc
       -0.04936975 -0.0742352 -0.015764011 -0.017498627
000380 5d 17 e4 3a 6f f1 b6 bd 64 03 ee 3c 5b 0b 22 3d
       0.0017401982 -0.089327686 0.029054351 0.03956161
000390 34 b9 8c 3b a8 3a de bd 6f 8e c3 bd 5f 45 2e bd
       0.004294539 -0.108510315 -0.095486514 -0.042546626
0003a0 a9 60 b4 bc 94 1d 9b bc 6f 0f 03 bd 60 a2 07 bd
       -0.022018747 -0.018935002 -0.03199714 -0.033113837
0003b0 81 27 21 bd a2 c2 1e bd 59 13 aa bc f9 d5 3c bd
       -0.039344314 -0.038759835 -0.020761179 -0.046102498
0003c0 96 97 4c bc 40 36 90 bd 2e d2 c9 bc 74 03 eb bc
       -0.012487313 -0.07041597 -0.024636354 -0.02868817
0003d0 58 8f b5 bc 6b b5 a5 bd a2 c8 9f bd 9a 36 9f bd
       -0.022163078 -0.08091243 -0.078019395 -0.07774086
0003e0 a8 0b 75 bd ae 89 1d bd 73 58 00 bd 67 34 4d bd
       -0.05982557 -0.03846138 -0.03133435 -0.050098803
0003f0 71 90 e5 bc 21 7b 36 bd 6b 5c 28 bd b4 2c 99 bd
       -0.028022977 -0.04455102 -0.04110376 -0.074792296

fc.bias f4 [2]
000000 2b 4b 48 bc c4 98 06 bb
       -0.012224953 -0.0020537833
